model/model.pth (torch, 246421 bytes, 42 tensors)

L1.0.weight f4 [100, 100]
0.09883729 -0.03197781 -0.07213553 0.00245573 0.12490065 0.00761713 0.010336408 -0.055503227
-0.11550843 0.081830926 0.021366298 -0.03914292 -0.029211475 0.044496898 0.107115805 -0.060474016
0.040704567 -0.06562522 0.026629508 -0.13009578 0.008753651 -0.040184613 -0.04247065 -0.02453966
0.043620065 -0.026960958 -0.07107929 -0.03389179 0.0470585 0.0036216942 -0.041233696 0.052095227
-0.03148929 -0.09467782 -0.047870155 -0.0946342 0.0346201 -0.09383714 -0.019731486 -0.070489645
-0.12551026 0.070841126 -0.06915332 -0.0047043967 0.08822171 0.0510249 -0.10228076 -0.022649527
0.037820593 0.016405303 0.007837617 0.043301262 -0.01236589 -0.07505058 0.022735469 -0.07680871
0.067151666 -0.009827055 -0.071911834 -0.018316709 0.1237647 -0.037690993 0.04340127 0.013250432
0.04737504 0.00935344 -0.07491234 -0.008375507 -0.07037056 -0.09626498 -0.087284155 0.08792738
-0.015537563 0.018567836 0.0615838 0.050687414 -0.06006698 0.07722365 -0.04654488 -0.1079476
-0.06213668 0.05567849 -0.09699898 0.049169485 0.08240965 -0.09369788 -0.0024993292 -0.01191486
0.09171251 -0.012969591 -0.021873614 0.08310404 -0.05343482 0.06417241 0.05242587 -0.06578417
-0.08657926 0.03596567 0.070311904 -0.112875134 0.0363624 -0.0070686336 0.07992324 0.0021286446
-0.03052391 0.08136321 0.015309173 0.00077997753 0.048400715 0.06979492 -0.023444654 -0.06622561
-0.067742154 0.006757745 0.001337453 0.077754445 -0.032684524 0.025202477 0.05447215 -0.09723863
-0.102524474 0.044140056 0.014451681 -0.102523334 -0.07611093 -0.047705393 0.022366889 -0.057085402
0.063909315 0.042260338 -0.0046024807 0.10349023 0.070740305 0.10079588 -0.09887325 0.040656023
0.031873684 -0.036800724 0.102041416 0.03653483 -0.06709184 0.09544758 0.004557503 -0.05006052
-0.026180794 -0.10994016 -0.042606376 -0.036537956 -0.03545283 0.09629438 0.023185866 0.03880386
-0.044722926 0.08070231 -0.086723745 0.07106219 0.07257012 0.06479917 -0.024978172 0.056216083
-0.11050303 -0.063985154 0.00089836225 0.063524246 0.025396798 -0.020202952 -0.018856617 -0.080956765
-0.03166285 -0.10339952 0.035554748 0.12976432 0.09397581 0.09323469 -0.025934935 0.018703025
0.0066345977 -0.0037501506 -0.12722744 -0.090649344 0.00018027674 -0.018931609 -0.0035187132 0.036505736
-0.10296555 0.12066804 -0.06900693 0.050967112 0.015892124 -0.06311337 0.01074109 0.057722047
0.085451424 -0.0062840628 -0.10998384 -0.11892744 0.050262302 0.10367992 0.030535934 -0.03769543
0.009024072 -0.05897093 -0.06739475 -0.047710318 -0.15982147 0.050990496 -0.027754346 -0.019844417
0.05965473 -0.023391465 -0.059900373 0.12809195 -0.1035022 -0.034181174 -0.026880167 0.014426959
0.052979913 -0.082953304 -0.06164614 0.006950782 0.03730611 0.014089317 -0.0461081 0.06704547
0.041802008 -0.08182642 0.101626515 -0.001946436 0.059841193 0.023044882 -0.0049531204 -0.017909849
-0.097356535 -0.08356142 -0.046424232 0.027791174 0.010058176 -0.10006346 0.03331352 -0.07772997
0.11200645 0.069691546 -0.01576962 0.055476468 -0.07658849 -0.0027269316 -0.11561975 -0.09988065
-0.054384395 0.0067351046 -0.0026323423 0.014072606 -0.03060381 0.14455016 -0.02518299 -0.05203075
00000000: 356b ca3d 2afb 02bd cbbb 93bd 50f0 203b
00000010: e9cb ff3d 1e99 f93b 0a5a 293c 5a57 63bd
00000020: af8f ecbd f996 a73d 6008 af3c 5454 20bd
00000030: e74c efbc 6142 363d 885f db3d 9ab3 77bd
00000040: d5b9 263d 8466 86bd 2026 da3c d437 05be
00000050: 796b 0f3c 9f98 24bd b4f5 2dbd 6607 c9bc
00000060: f4aa 323d 3add dcbc 0592 91bd 1ed2 0abd
00000070: 6ac0 403d f259 6d3b aae4 28bd ce61 553d
00000080: eafa 00bd 72e6 c1bd 7f13 44bd 93cf c1bd
00000090: cecd 0d3d b02d c0bd eda3 a1bc e05c 90bd
000000a0: c385 00be 2715 913d 41a0 8dbd 5727 9abb
000000b0: 95ad b43d 7cff 503d 9378 d1bd 808b b9bc
000000c0: c4e9 1a3d 6a64 863c 5969 003c aa5c 313d
000000d0: 4d9a 4abc 1eb4 99bd bc3f ba3c e34d 9dbd
000000e0: d086 893d a801 21bc 8346 93bd ec0c 96bc
000000f0: 5978 fd3d df61 1abd 88c5 313d 5718 593c
00000100: 540c 423d 2c3f 193c a46b 99bd 6c39 09bc
00000110: 711e 90bd 9326 c5bd 09c2 b2bd 4513 b43d
00000120: 4391 7ebc 931b 983c 4b3f 7c3d 9b9d 4f3d
00000130: cb08 76bd 6f27 9e3d d8a5 3ebd a213 ddbd
00000140: 0883 7ebd 210f 643d 67a7 c6bd f165 493d
00000150: 64c6 a83d ade4 bfbd c9cb 23bb 8c36 43bc
00000160: c5d3 bb3d 687e 54bc 4b30 b3bc 7332 aa3d
00000170: 78de 5abd d36c 833d 82bc 563d dab9 86bd
00000180: 7850 b1bd bd50 133d b0ff 8f3d 142b e7bd
00000190: bdf0 143d ff9f e7bb ccae a33d bb80 0b3b
000001a0: 470d fabc c1a1 a63d 53d3 7a3c 6877 4c3a
000001b0: d43f 463d a4f0 8e3d 010f c0bc 4ba1 87bd
000001c0: 66bc 8abd 1370 dd3b 7a4d af3a b93d 9f3d
000001d0: 35e0 05bd 6d75 ce3c 301e 5f3d 0c25 c7bd
000001e0: 5af8 d1bd 34cc 343d bec6 6c3c c1f7 d1bd
000001f0: 0ce0 9bbd bb66 43bd c43a b73c 62d2 69bd
00000200: e3e2 823d 2d19 2d3d 68d0 96bb b0f2 d33d
00000210: 4be0 903d 126e ce3d 0f7e cabd ee86 263d
00000220: fb8d 023d 5bbc 16bd 17fb d03d 8ca5 153d
00000230: 7267 89bd 057a c33d 1b57 953b 430c 4dbd
00000240: 1b79 d6bc 4e28 e1bd 0684 2ebd d3a8 15bd
00000250: fd36 11bd fd35 c53d 49f0 bd3c ccf0 1e3d
00000260: 632f 37bd 4147 a53d 389c b1bd 0e89 913d
00000270: a59f 943d 6db5 843d 069f ccbc d642 663d
00000280: 6a4f e2bd a60a 83bd 1280 6b3a 0019 823d
00000290: f20c d03c a980 a5bc 3179 9abc a9cc a5bd
000002a0: e8b0 01bd 21c3 d3bd dba1 113d f0e0 043e
000002b0: 6476 c03d d4f1 be3d 8075 d4bc 1637 993c
000002c0: 0a67 d93b 16c5 75bb e947 02be 5da6 b9bd
000002d0: ab08 3d39 7616 9bbc 369a 66bb 0a87 153d
000002e0: 9adf d2bd ce20 f73d 8153 8dbd e4c2 503d
000002f0: 3330 823c 9541 81bd 66fb 2f3c f46d 6c3d
00000300: 2801 af3d 8aea cdbb 353f e1bd 3b90 f3bd
00000310: d8df 4d3d 2356 d43d 7f26 fa3c 8666 1abd
00000320: b4d9 133c 808b 71bd 4206 8abd e56b 43bd
00000330: 3da8 23be 69db 503d 155d e3bc c290 a2bc
00000340: 8558 743d 759f bfbc 185a 75bd 892a 033e
00000350: f6f8 d3bd 8f01 0cbd cc33 dcbc 0d5f 6c3c
00000360: 7701 593d 6ce3 a9bd aa80 7cbd 63c3 e33b
00000370: 4bce 183d e1d6 663c d9db 3cbd 234f 893d
00000380: 9538 2b3d 9c94 a7bd 9021 d03d 8e1f ffba
00000390: 0a1c 753d 9fc8 bc3c c94d a2bb adb7 92bc
000003a0: dd62 c7bd 4022 abbd 5627 3ebd 51aa e33c
000003b0: 0ccb 243c 12ee ccbd c273 083d e430 9fbd
000003c0: a363 e53d 71ba 8e3d 4a2f 81bc 4b3b 633d
000003d0: 6dda 9cbd 52b6 32bb 0cca ecbd 3a8e ccbd
000003e0: 2cc2 5ebd 27b2 dc3b 6083 2cbb ca90 663c
000003f0: d7b4 fabc f504 143e 8f4c cebc 321e 55bd

L1.0.bias f4 [100]
0.019502267 -0.034498997 0.043859355 -0.06690997 0.008270502 0.011977827 0.038149156 -0.07818314
0.0035500266 0.04672975 0.09527592 0.0933328 -0.008073972 0.065686494 0.037068933 -0.09215079
-0.054141775 -0.056611396 0.09178994 0.03976532 0.09774107 -0.08286864 -0.09157176 0.05398687
-0.0804498 -0.031639986 0.10386266 -0.09118591 -0.099183284 0.02649454 -0.04142192 0.059576664
0.085998215 0.011564669 -0.06445081 0.01707403 -0.07034372 0.07134804 -0.050739326 -0.04453366
0.009410483 0.02670216 -0.03633676 -0.08335519 -0.06909591 -0.04404983 0.094839856 -0.045641392
0.06339871 -0.008455646 0.06365884 0.05495737 -0.0026015982 -0.0608265 0.010397298 0.06424189
0.10081341 0.03206237 -0.008096577 -0.077745505 -0.06491752 0.030685563 0.07410214 -0.067572095
-0.081372544 -0.04298024 -0.0015960735 0.038926795 0.10322087 -0.033924464 -0.05405016 0.07858705
0.015400867 0.022038653 -0.09877389 -0.025933113 -0.031325236 -0.049995046 -0.096202955 -0.07306843
-0.048555106 -0.0132294195 0.013123755 -0.08508889 0.027532702 -0.0678296 -0.043581173 0.04242114
-0.06354849 -0.09400168 0.021499649 -0.014001745 -0.06050337 0.07592335 0.04415658 -0.082568705
0.09769811 0.07494318 -0.019674608 -0.0031878497
00000000: 38c3 9f3c d24e 0dbd dea5 333d 1808 89bd
00000010: 0081 073c a63e 443c 4a42 1c3d 7b1e a0bd
00000020: 90a7 683b b267 3f3d 0620 c33d 4425 bf3d
00000030: b148 04bc a486 863d 98d5 173d 8eb9 bcbd
00000040: c4c3 5dbd 5ae1 67bd 5dfc bb3d f6e0 223d
00000050: 782c c83d 09b7 a9bd fa89 bbbd 5621 5d3d
00000060: ddc2 a4bd ee98 01bd f2b5 d43d aebf babd
00000070: 9b20 cbbd 140b d93c 08aa 29bd a906 743d
00000080: d51f b03d bd79 3d3c c9fe 83bd d6de 8b3c
00000090: 5e10 90bd ec1e 923d 0ad4 4fbd ed68 36bd
000000a0: 6d2e 1a3c 7dbe da3c dbd5 14bd 20b6 aabd
000000b0: 2882 8dbd 986d 34bd 663b c23d 78f2 3abd
000000c0: 2fd7 813d 8d89 0abc 915f 823d fb1a 613d
000000d0: 937f 2abb 3525 79bd 6e59 2a3c 4191 833d
000000e0: 4377 ce3d d553 033d 81a7 04bc 0939 9fbd
000000f0: 7af3 84bd 4a60 fb3c ddc2 973d 3d63 8abd
00000100: a6a6 a6bd 0c0c 30bd 5733 d1ba b471 1f3d
00000110: 7765 d33d 61f4 0abd b363 5dbd 3ff2 a03d
00000120: eb53 7c3c 688a b43c f749 cabd ae71 d4bc
00000130: e44e 00bd 9bc7 4cbd 0e06 c5bd e7a4 95bd
00000140: b8e1 46bd 35c0 58bc 0505 573c 1543 aebd
00000150: 438c e13c 3fea 8abd 2c82 32bd cac1 2d3d
00000160: b625 82bd f483 c0bd 0820 b03c 9367 65bc
00000170: 62d2 77bd b47d 9b3d 88dd 343d c819 a9bd
00000180: f215 c83d cf7b 993d a52c a1bc 3eeb 50bb

L1.1.weight f4 [100]
0.983486 0.9799567 1.0364771 1.0189943 0.9814527 1.0610081 0.9912886 1.0052924
1.0291662 0.9921536 1.0191149 0.9764634 1.0253488 0.9513829 1.0144149 1.0124669
1.0162244 0.9588616 1.0316201 0.97806036 1.0365239 1.0123745 1.0092537 1.0058002
0.9770286 0.9841963 1.0018665 1.032149 1.0244864 0.98619866 1.0309618 1.0266529
1.00351 1.0222456 1.0075176 0.9890823 1.011237 1.017742 1.0139881 1.0147725
0.9741512 0.9990077 0.998467 0.99945766 0.9926762 1.0015811 0.9974227 0.9992634
1.0166587 0.9645032 1.0029296 0.9903044 0.9858361 0.98324454 1.0018216 0.9643196
1.0318815 0.99346644 1.0126461 1.0006014 0.99358475 1.0178294 1.0147711 0.97427714
0.9979981 0.96108717 1.0015081 1.0619537 1.0285088 0.9933757 0.9597169 0.97725075
1.0095143 0.9999656 1.0113777 0.958164 0.9586915 0.95311946 1.0214078 0.99307114
0.96340156 1.0278443 0.9905307 1.0151564 0.9962296 0.95159173 1.0028577 0.95177746
0.9846639 1.0063901 0.99936014 0.9833175 1.001198 0.9738218 1.0153751 0.9904326
1.0176095 0.98193616 0.96516424 1.0048146
00000000: bdc5 7b3f 71de 7a3f 48ab 843f 686e 823f
00000010: 7c40 7b3f 1dcf 873f 17c5 7d3f 6cad 803f
00000020: b8bb 833f c7fd 7d3f 5b72 823f 81f9 793f
00000030: a13e 833f d48d 733f 59d8 813f 8498 813f
00000040: a413 823f f477 753f 210c 843f 2a62 7a3f
00000050: d1ac 843f 7d95 813f 3a2f 813f 10be 803f
00000060: 8c1e 7a3f 4af4 7b3f 293d 803f 751d 843f
00000070: 5f22 833f 8477 7c3f 8ef6 833f 5d69 833f
00000080: 0473 803f f2d8 823f 56f6 803f 7f34 7d3f
00000090: 3770 813f 5f45 823f 5dca 813f 11e4 813f
000000a0: f961 793f f8be 7f3f 899b 7f3f 75dc 7f3f
000000b0: 0720 7e3f cf33 803f 1857 7f3f bacf 7f3f
000000c0: df21 823f afe9 763f ff5f 803f 9784 7d3f
000000d0: c15f 7c3f eab5 7b3f b13b 803f a6dd 763f
000000e0: b114 843f d153 7e3f 639e 813f b513 803f
000000f0: 925b 7e3f 3c48 823f 05e4 813f 3a6a 793f
00000100: ce7c 7f3f cf09 763f 6b31 803f 19ee 873f
00000110: 2da6 833f df4d 7e3f 02b0 753f 1b2d 7a3f
00000120: c437 813f bffd 7f3f d374 813f 3c4a 753f
00000130: ce6c 753f a3ff 733f 7ebd 823f e939 7e3f
00000140: 7ca1 763f 6790 833f 6c93 7d3f a5f0 813f
00000150: e708 7f3f 849b 733f a45d 803f b0a7 733f
00000160: ef12 7c3f 64d1 803f 11d6 7f3f b2ba 7b3f
00000170: 4227 803f 634c 793f d0f7 813f fe8c 7d3f
00000180: 0741 823f 2b60 7b3f 0115 773f c49d 803f

L1.1.bias f4 [100]
0.028632026 0.019685837 0.05490575 0.09687371 0.024061834 0.016644597 -0.004877431 0.036684487
0.075621866 0.012285936 0.024828836 -0.011126799 0.09175297 -0.03428215 0.0832694 0.07363901
0.024008209 0.001552945 0.07675161 0.012314474 0.12202936 0.03885106 0.01507681 0.027619775
0.057734475 0.03900576 0.012258429 0.013924371 0.10826769 0.039351244 0.05466824 0.047055785
0.018038707 0.03416968 0.03630404 0.06748046 0.070944965 0.06270531 0.002819611 0.007270078
0.019584754 -0.045721274 0.017214704 0.09622589 0.061709132 0.042161193 0.04077087 0.032147937
0.007250598 0.027604477 0.058674164 0.047622744 0.040021416 0.0024151118 0.01086576 0.04249797
0.039549515 -0.032014396 0.10389082 0.039887086 0.08537133 0.0631716 -0.011684931 0.058562595
0.002242352 0.009076734 0.08671802 0.09917001 0.06471686 0.03991919 -0.0500749 0.046645183
0.01757734 0.007089858 0.09341827 -0.026417416 0.06687775 0.06685606 0.020454453 0.018475702
0.087043606 0.028686007 0.044026874 0.10686142 0.032744057 0.009467753 0.03251402 0.07367714
0.11331153 0.030798445 0.054657206 0.012111019 0.009755478 0.056589067 0.010332589 0.08718997
0.053338464 0.018974558 -0.027427249 0.006860249
00000000: b68d ea3c 3144 a13c dae4 603d b965 c63d
00000010: 531d c53c 405a 883c dbd2 9fbb 7942 163d
00000020: a3df 9a3d f34a 493c d865 cb3c 2d4d 36bc
00000030: fbe8 bb3d 716b 0cbd 2689 aa3d 0dd0 963d
00000040: ddac c43c 308c cb3a f32f 9d3d a6c2 493c
00000050: 87ea f93d 4a22 1f3d b904 773c de42 e23c
00000060: fc7a 6c3d 81c4 1f3d 94d7 483c 0c23 643c
00000070: 73bb dd3d c52e 213d ceeb 5f3d 91bd 403d
00000080: e9c5 933c 82f5 0b3d 8cb3 143d 3233 8a3d
00000090: 984b 913d a46b 803d 39c9 383b d639 ee3b
000000a0: 3570 a03c 3b46 3bbd da05 8d3c 1412 c53d
000000b0: b7c2 7c3d 37b1 2c3d 5bff 263d 8ead 033d
000000c0: 6d96 ed3b c922 e23c 5254 703d 1110 433d
000000d0: 7fed 233d da46 1e3b 4d06 323c 5a12 2e3d
000000e0: acfe 213d 8721 03bd b6c4 d43d a460 233d
000000f0: 2ad7 ae3d 1d60 813d 2772 3fbc 55df 6f3d
00000100: 6df4 123b 95b6 143c 3899 b13d a519 cb3d
00000110: 468a 843d 4e82 233d 571b 4dbd 050f 3f3d
00000120: 5bfe 8f3c 0a52 e83b 1452 bf3d 5669 d8bc
00000130: 34f7 883d d4eb 883d 1990 a73c 5b5a 973c
00000140: eb43 b23d ebfe ea3c 8655 343d 29da da3d
00000150: a21e 063d a21e 1b3c 6c2d 053d 0ae4 963d
00000160: e00f e83d 054d fc3c 3ce0 5f3d 4c6d 463c
00000170: 71d5 1f3c f0c9 673d 054a 293c a890 b23d
00000180: 6f79 5a3d 8870 9b3c 1caf e0bc f1cb e03b

L1.1.running_mean f4 [100]
0.20369264 -0.059199218 -0.10303382 -0.2765166 0.0052248253 0.028126055 0.08918614 -0.08579611
-0.08018145 0.10215325 0.20859382 0.026958633 -0.18208572 0.022871098 0.0059663006 -0.022068989
-0.05086604 -0.058853984 0.12615624 0.1145662 0.125415 -0.25319883 -0.07637232 0.045499206
-0.012503403 -0.09175017 0.19937786 -0.068041615 -0.16980807 0.053578887 -0.042656563 -0.002457033
0.13417041 0.18207309 -0.08514575 0.04203715 -0.13073394 0.031729005 -0.070890695 -0.2310005
-0.08204113 -0.0126644205 -0.08871031 -0.18227315 0.008840689 -0.031125547 0.14885369 -0.077402905
0.16700155 -0.072953396 -0.054850444 -0.06605887 0.09588199 -0.19912566 -0.00023241797 -0.013819863
-0.07481996 0.1560823 -0.037896886 -0.23602442 -0.20311433 0.08912811 0.015261532 -0.093160085
-0.089658976 -0.14769518 -0.029786069 -0.061946094 0.13452972 -0.040207576 -0.01325387 0.06829533
-0.20425464 0.07135718 -0.03768071 -0.11121015 0.14928807 -0.09031894 -0.10737978 -0.08249725
-0.008108381 -0.08711973 0.023269774 -0.15357102 -0.009626746 -0.06958077 0.029181557 0.12156881
-0.05650711 -0.17524023 -0.05833829 -0.014470302 -0.03576809 0.026375633 -0.1109686 -0.115928955
0.043267883 0.26072478 -0.04657924 -0.12590475
00000000: ce94 503e e17a 72bd 6503 d3bd 9593 8dbe
00000010: 0335 ab3b 9d68 e63c 39a7 b63d dfb5 afbd
00000020: 2c36 a4bd b935 d13d 9e99 553e 5ad8 dc3c
00000030: ae74 3abe 2b5c bb3c f580 c33b 06ca b4bc
00000040: e958 50bd e010 71bd 1a2f 013e afa1 ea3d
00000050: ca6c 003e 47a3 81be 1769 9cbd 605d 3a3d
00000060: 13db 4cbc 83e7 bbbd b629 4c3e 6759 8bbd
00000070: 2be2 2dbe 8975 5b3d a6b8 2ebd 2c06 21bb
00000080: f863 093e 5e71 3a3e e560 aebd 262f 2c3d
00000090: 1edf 05be 46f6 013d 242f 91bd 658b 6cbe
000000a0: 2e05 a8bd 6e7e 4fbc c0ad b5bd d0a5 3abe
000000b0: 8ad8 103c 01fb febc 1a6d 183e 6a85 9ebd
000000c0: 7402 2b3e 9768 95bd dcaa 60bd df49 87bd
000000d0: c75d c43d 99e7 4bbe 39b5 73b9 b56c 62bc
000000e0: 353b 99bd 0ad4 1f3e c439 1bbd 63b0 71be
000000f0: 34fd 4fbe cc88 b63d 810b 7a3c b7ca bebd
00000100: 209f b7bd 683d 17be ea01 f4bc 30bb 7dbd
00000110: 29c2 093e b3b0 24bd c326 59bc 6cde 8b3d
00000120: 2128 51be b723 923d 1757 1abd 26c2 e3bd
00000130: f9de 183e 23f9 b8bd eee9 dbbd 51f4 a8bd
00000140: 04d9 04bc d46b b2bd 41a0 be3c b941 1dbe
00000150: 80b9 1dbc 5d80 8ebd 290e ef3c 11f9 f83d
00000160: 0074 67bd 2d72 33be 21f4 6ebd d814 6dbc
00000170: 9081 12bd b611 d83c 8143 e3bd 296c edbd
00000180: aa39 313d b87d 853e e0c9 3ebd 2ded 00be

L1.1.running_var f4 [100]
0.009996822 0.0107678035 0.016659385 0.014411178 0.010311462 0.008329238 0.012759483 0.010492757
0.013348423 0.0098474845 0.010525235 0.010287085 0.013224457 0.009315645 0.012849388 0.0114196
0.010596868 0.0074412185 0.009114179 0.01450172 0.012881209 0.021106243 0.01306361 0.007062117
0.0126808155 0.010973944 0.012142618 0.012354017 0.01405182 0.009934491 0.015196282 0.013024841
0.0113722915 0.013557897 0.012015857 0.008337229 0.022322748 0.012113276 0.0109233605 0.017620686
0.0074369153 0.019833269 0.01170648 0.012089677 0.013407629 0.010354866 0.010453257 0.008600838
0.019638367 0.01797979 0.017029839 0.011994021 0.012254041 0.007845525 0.014376462 0.013434886
0.015996898 0.008201739 0.012344813 0.009492678 0.015135246 0.01091779 0.012155613 0.01143257
0.011054569 0.011661757 0.008189916 0.010552359 0.015747344 0.013127819 0.010394149 0.009449575
0.012751784 0.009902678 0.012305834 0.012403069 0.008704982 0.010314653 0.023039484 0.012457146
0.010251937 0.0076741744 0.007611781 0.011687759 0.009199031 0.009242536 0.007472245 0.011227586
0.013830973 0.013751576 0.005911708 0.009619471 0.008963342 0.0132503165 0.010520882 0.009709855
0.011369262 0.012317475 0.011539989 0.013074807
00000000: b6c9 233c 716b 303c 4379 883c dd1c 6c3c
00000010: 68f1 283c 5b77 083c 270d 513c d0e9 2b3c
00000020: 58b3 5a3c 5857 213c 0972 2c3c 298b 283c
00000030: 65ab 583c a6a0 183c 3d86 523c 4619 3b3c
00000040: 7c9e 2d3c 77d5 f33b a353 153c 9f98 6d3c
00000050: b50b 533c 00e7 ac3c c008 563c 5569 e73b
00000060: 32c3 4f3c 0fcc 333c d5f1 463c 8168 4a3c
00000070: 9b39 663c 46c4 223c d4f9 783c 2566 553c
00000080: d952 3a3c f121 5e3c 28de 443c df98 083c
00000090: 32de b63c c376 463c e5f7 323c 4259 903c
000000a0: 5eb1 f33b 6179 a23c 89cc 3f3c c813 463c
000000b0: acab 5b3c 75a7 293c 2344 2b3c 87ea 0c3c
000000c0: a4e0 a03c 5a4a 933c 2982 8b3c 9282 443c
000000d0: 2cc5 483c 848a 003c 418b 6b3c ff1d 5c3c
000000e0: ed0b 833c 9660 063c e641 4a3c 2d87 1b3c
000000f0: d3f9 773c 88e0 323c 5628 473c ad4f 3b3c
00000100: 391e 353c f410 3f3c ff2e 063c cde3 2c3c
00000110: 9300 813c 1016 573c 394c 2a3c 64d2 1a3c
00000120: dcec 503c d83e 223c 699e 493c 3e36 4b3c
00000130: 579f 0e3c cafe 283c 4dbd bc3c 0f19 4c3c
00000140: bef7 273c a477 fb3b 3f6c f93b 047e 3f3c
00000150: 88b7 163c 016e 173c bcd9 f43b e9f3 373c
00000160: 4e9b 623c 4a4e 613c 00b7 c13b fc9a 1d3c
00000170: fbda 123c db17 593c c75f 2c3c 1516 1f3c
00000180: 2446 3a3c 3ccf 493c 3912 3d3c b737 563c

L1.3.weight f4 [100, 100]
-0.021717632 -0.008282272 0.02196242 -0.13381186 0.12631834 0.091075264 -0.084523186 -0.04245985
-0.11011838 0.047685184 0.045629602 -0.043155547 0.05483928 0.048887208 0.08921019 0.0464113
-0.006755837 0.033488058 0.085919276 0.047103245 -0.17583805 0.07232606 -0.04445176 0.08537145
0.075986706 -0.106870554 0.007206681 0.03550361 0.026837884 -0.06140326 0.0849973 -0.014565097
0.08870502 0.0019969754 -0.05865125 -0.03222598 0.028927913 0.09037393 0.10781391 -0.0025420773
-0.035861462 -0.0007090852 0.10481468 0.028403753 -0.038702637 -0.071721226 0.005775337 0.032656703
-0.04308827 0.06744858 -0.061921623 0.009539918 -0.042223305 0.068741255 0.08416234 -0.05571109
0.008955273 0.02425271 -0.091630794 0.06337792 0.06822709 -0.10702986 0.0045745187 -0.0932951
-0.019331528 -0.07836901 0.024886545 -0.013594585 0.053677637 -0.06944073 0.048228778 -0.07327831
-0.019001128 -0.049002767 0.06581393 0.010755539 -0.06069613 0.025540886 -0.064913236 0.0022400264
-0.03651487 0.038970385 0.08036889 -0.112405494 -0.06663054 0.08001607 0.065721534 -0.0048565776
-0.049793962 0.124311894 -0.0047200513 -0.032124527 0.046071433 -0.059765697 0.08582999 0.028820787
-0.115208015 -0.07268132 -0.06896638 -0.012886947 0.09191638 0.035841182 -0.10081047 -0.030304348
-0.006816672 -0.055314507 0.08064618 -0.079655215 0.0455214 0.008404295 0.0048857485 -0.04751571
0.051741008 -0.111145884 0.06176607 0.06835432 -0.025080977 -0.0071996637 -0.051621746 -0.074410446
0.12306733 0.010999411 -0.15026511 -0.030421127 -0.015530368 0.0003710045 0.027244328 0.06278053
0.116396226 0.043663036 0.05432446 -0.10310598 0.036857486 -0.06654949 -0.06874738 0.05812328
0.029363927 -0.083873674 -0.0567696 0.07931322 -0.010137413 0.06968415 -0.09415521 0.054695014
0.109336935 -0.04530339 -0.09267706 -0.04734461 0.0031338432 0.08338904 -0.1346044 0.051470228
-0.020414066 -0.031558823 0.0014565221 0.0041694385 -0.011786402 0.07233014 0.12530568 -0.08879387
-0.0088106515 -0.01931286 0.061232734 -0.027755708 0.05010502 0.059625875 -0.043213733 -0.062154047
0.028066058 0.0589174 0.07168468 -0.078355126 0.044935707 -0.06771532 -0.0012613814 0.04879169
0.0019297431 0.057767976 -0.10245374 0.04143807 0.0015583377 -0.038737852 0.022841271 0.023021441
0.012057311 -0.08866594 -0.061803512 0.06320283 -0.0433475 -0.12571599 0.059575707 0.0072662523
0.022431793 0.03199843 -0.087955505 -0.055931248 -0.04665461 -0.02149575 0.03854504 -0.07740758
-0.05892772 -0.041692626 0.025600657 -0.051779 0.058915123 -0.0164311 -0.0012402423 -0.07590027
-0.09841389 0.102195576 0.109324746 0.043221883 0.054302737 -0.023589265 -0.010811085 -0.03760389
0.025079051 -0.04207996 0.10796689 0.015514715 0.026756752 0.035571784 -0.048019014 0.09386832
-0.12848984 0.07269436 0.011413551 0.0367962 0.008659082 -0.0587076 0.037092917 0.07556638
-0.10404088 0.052940357 0.038525008 -0.031789027 -0.006541128 -0.012005484 -0.038422976 -0.013838478
0.03395789 -0.04344758 0.11724949 0.0013726682 0.003705953 -0.030679788 -0.0094725685 -0.071937345
-0.04491219 0.037107058 -0.000539022 0.004024239 0.07035811 0.023697164 0.022648137 -0.06694918
00000000: 2de9 b1bc 5eb2 07bc 88ea b33c fa05 09be
00000010: 9859 013e ab85 ba3d 7e1a adbd 61ea 2dbd
00000020: bf85 e1bd 8a51 433d 1be6 3a3d dfc3 30bd
00000030: 279f 603d f43d 483d d5b3 b63d c619 3e3d
00000040: 1160 ddbb c62a 093d 72f6 af3d 55ef 403d
00000050: e40e 34be af1f 943d 0c13 36bd 3ad7 ae3d
00000060: eb9e 9b3d f3de dabd 0626 ec3b 3c6c 113d
00000070: 1fdb db3c fc81 7bbd 1013 ae3d 72a2 6ebc
00000080: faaa b53d b0df 023b 4b3c 70bd 64ff 03bd
00000090: 3bfa ec3c f815 b93d 8acd dc3d fb98 26bb
000000a0: 78e3 12bd e7e1 39ba 14a9 d63d fdae e83c
000000b0: a886 1ebd 94e2 92bd 0a3f bd3b 09c3 053d
000000c0: 537d 30bd 7b22 8a3d 87a1 7dbd 514d 1c3c
000000d0: 58f2 2cbd 37c8 8c3d 4e5d ac3d 5031 64bd
000000e0: 23b9 123c 9fad c63c eda8 bbbd 48cc 813d
000000f0: a5ba 8b3d 7932 dbbd d8e5 953b 8011 bfbd
00000100: 275d 9ebc ee7f a0bd dede cb3c d2bb 5ebc
00000110: 15dd 5b3d f136 8ebd 8a8b 453d f012 96bd
00000120: 41a8 9bbc 20b7 48bd 74c9 863d 0038 303c
00000130: 819c 78bd 1f3b d13c 3bf1 84bd 68cd 123b
00000140: 9e90 15bd 699f 1f3d 7298 a43d da34 e6bd
00000150: 9875 88bd 77df a33d 0399 863d ed23 9fbb
00000160: c1f4 4bbd 3c97 fe3d a9aa 9abb 0295 03bd
00000170: 66b5 3c3d e0cc 74bd a2c7 af3d 9219 ec3c
00000180: 2ef2 ebbd f2d9 94bd 3f3e 8dbd c623 53bc
00000190: a83e bc3d 34ce 123d b875 cebd d340 f8bc
000001a0: 645e dfbb 7791 62bd d329 a53d 4622 a3bd
000001b0: a674 3a3d 2bb2 093c a118 a03b d59f 42bd
000001c0: 61ee 533d 74a0 e3bd 6bfe 7c3d 5afd 8b3d
000001d0: 9f76 cdbc 28eb ebbb 5371 53bd 8164 98bd
000001e0: b90a fc3d e036 343c 19df 19be ba35 f9bc
000001f0: 1673 7ebc 6283 c239 7f2f df3c 1493 803d
00000200: 2561 ee3d 03d8 323d 5383 5e3d 3a29 d3bd
00000210: e0f7 163d 194b 88bd 6dcb 8cbd ad12 6e3d
00000220: 9e8c f03c f6c5 abbd 3d87 68bd f86e a23d
00000230: 6417 26bc 90b6 8e3d 72d4 c0bd e107 603d
00000240: 0bec df3d 0c90 39bd 78cd bdbd 6cec 41bd
00000250: 2a61 4d3b dfc7 aa3d bcd5 09be 72d2 523d
00000260: 663b a7bc d343 01bd c6e8 be3a c99f 883b
00000270: c11b 41bc d321 943d 2250 003e 8fd9 b5bd
00000280: 8d5a 10bc 0136 9ebc 2dcf 7a3d f05f e3bc
00000290: ec3a 4d3d 433a 743d e200 31bd 3e95 7ebd
000002a0: caea e53c 5f53 713d 6bcf 923d a778 a0bd
000002b0: 810e 383d 54ae 8abd f054 a5ba ccd9 473d
000002c0: 6fef fc3a 1d9e 6c3d 44d3 d1bd f7ba 293d
000002d0: 2341 cc3a 95ab 1ebd 9e1d bb3c 7697 bc3c
000002e0: 078c 453c 7d96 b5bd ae25 7dbd 7c70 813d
000002f0: 268d 31bd b1bb 00be a805 743d be19 ee3b
00000300: e1c2 b73c c910 033d 0422 b4bd 2a18 65bd
00000310: e818 3fbd db17 b0bc 67e1 1d3d de87 9ebd
00000320: 315e 71bd e3c5 2abd 78b8 d13c 3716 54bd
00000330: fc50 713d 849a 86bc a08f a2ba 9a71 9bbd
00000340: 398d c9bd ea4b d13d a7e5 df3d 6e09 313d
00000350: 8c6c 5e3d 463e c1bc fa20 31bc 8906 1abd
00000360: 9572 cd3c 095c 2cbd bf1d dd3d 6e31 7e3c
00000370: fa30 db3c b8b3 113d 96af 44bd 093e c03d
00000380: d792 03be c8e0 943d e7ff 3a3c 9db7 163d
00000390: d3de 0d3c 6177 70bd beee 173d 8cc2 9a3d
000003a0: 6313 d5bd fdd7 583d 66cc 1d3d 3635 02bd
000003b0: f556 d6bb a6b2 44bc 6961 1dbd c9ba 62bc
000003c0: 6e17 0b3d 17f6 31bd 8020 f03d 1aeb b33a
000003d0: 93df 723b 2e54 fbbc d532 1bbc e353 93bd
000003e0: d8f5 37bd 92fd 173d 274d 0dba c3dd 833b
000003f0: ea17 903d 8e20 c23c 9688 b93c a71c 89bd

L1.3.bias f4 [100]
0.063731626 0.061326385 0.09538434 -0.03484877 0.045197543 -0.08498687 0.013366132 0.0007248316
0.09736617 -0.07692263 0.004090125 0.08469045 -0.06418369 0.056097135 -0.095673256 -0.02783869
0.009714371 -0.09386183 0.037782684 -0.041086394 -0.09831988 -0.0053719264 0.08935373 -0.015376315
-0.09105634 0.053212967 0.027039407 0.063856035 0.09569519 -0.019276787 -0.069782786 -0.07817495
-0.0725698 0.06437855 -0.08497673 -0.038415726 0.030655392 0.033020277 -0.074094966 -0.033852845
0.013980643 0.026242403 -0.04697499 -0.09297661 -0.085126884 -0.023283111 -0.06333768 0.05293626
0.056897312 -0.09788377 -0.08816186 -0.05022571 -0.02891958 0.0090670725 -0.054961856 -0.045205604
-0.08098893 -0.08949756 -0.024996677 0.027403623 0.012486243 -0.040343437 -0.0061489968 0.039178323
0.041520763 0.06868093 0.084573865 -0.020185677 -0.04360683 -0.040076707 0.0035488978 -0.0030755384
-0.03507466 0.012041083 0.07204232 -0.07323699 -0.10052554 0.080243714 0.080063574 0.09480089
-0.06979115 0.06958553 0.07547 -0.0348467 0.060973674 -0.033882726 0.073010206 -0.019507667
0.089748986 0.025435684 -0.060747515 -0.08546478 -0.025537854 -0.043296788 0.08326199 -0.040028155
-0.068971865 -0.03889901 -0.053957123 0.08266115
00000000: ba85 823d 6031 7b3d dd58 c33d 95bd 0ebd
00000010: 0f21 393d 990d aebd 9ffd 5a3c a002 3e3a
00000020: ea67 c73d 9d89 9dbd 7506 863b 3072 ad3d
00000030: bd72 83bd 1cc6 653d 57f0 c3bd f70d e4bc
00000040: 0629 1f3c a23a c0bd 04c2 1a3d 354a 28bd
00000050: ef5b c9bd fc06 b0bb 17ff b63d f1ec 7bbc
00000060: bf7b babd d7f5 593d bf81 dd3c f4c6 823d
00000070: d7fb c33d 5aea 9dbc 47ea 8ebd 301a a0bd
00000080: 7a9f 94bd e7d8 833d 4808 aebd cf59 1dbd
00000090: 0421 fb3c 4540 073d 1abf 97bd 48a9 0abd
000000a0: 110f 653c 4ffa d63c d968 40bd 856a bebd
000000b0: 0157 aebd 39bc bebc 30b7 81bd b1d3 583d
000000c0: 280d 693d 4977 c8bd 358e b4bd 79b9 4dbd
000000d0: c1e8 ecbc 0f8e 143c af1f 61bd 8329 39bd
000000e0: 86dd a5bd 7f4a b7bd d5c5 ccbc 907d e03c
000000f0: 1993 4c3c 293f 25bd 867d c9bb 7379 203d
00000100: ad11 2a3d 96a8 8c3d 1035 ad3d 6f5c a5bc
00000110: 139d 32bd 7927 24bd a094 683b f98e 49bb
00000120: 72aa 0fbd f647 453c ed8a 933d 46fd 95bd
00000130: 56e0 cdbd d156 a43d 5ff8 a33d f826 c23d
00000140: aaee 8ebd dc82 8e3d 0490 9a3d 6abb 0ebd
00000150: 88bf 793d 9dc8 0abd 6086 953d 8bce 9fbc
00000160: 51ce b73d 7f5e d03c 63d2 78bd 2908 afbd
00000170: c334 d1bc f957 31bd 4385 aa3d 90f4 23bd
00000180: 1f41 8dbd 9154 1fbd 2502 5dbd 404a a93d

L1.4.weight f4 [100]
1.0074959 1.0159792 1.014404 0.98731124 0.9845633 1.0189145 1.0105507 1.0046302
1.0213692 0.9838783 1.0221616 0.99729353 0.98942727 1.0165546 0.9859608 1.022152
1.0022838 0.9803404 0.9589689 0.99009687 0.9573002 0.98741466 1.0043988 1.0159833
1.0205265 0.9980455 1.0107014 1.0313408 1.0007906 0.9972158 1.0105703 1.0247169
0.9875193 0.96309185 1.0232569 0.9977418 1.0181957 0.98147196 1.011861 1.0408452
0.9446962 1.0008664 1.013734 1.0453111 1.0074619 0.9756402 0.97030663 0.98258555
0.99093056 1.0081867 0.96296275 0.98773766 1.0492641 0.96547735 0.97595894 0.99563986
0.96259534 1.0090837 1.0222989 1.0085392 1.0307058 0.991469 0.95364684 0.9839582
0.9612221 0.9906778 1.0004059 0.9906541 0.9455558 0.99907637 0.98290104 1.003616
1.0078391 0.9524273 0.9582233 0.99264234 1.0267361 0.95406204 0.99035424 0.9960844
0.96073717 1.0171764 1.0573125 0.9751932 0.9967254 1.0146444 0.99609727 1.0650281
1.0081986 0.97931904 1.0399307 1.020114 0.9997269 1.0294974 0.9954626 1.0102547
1.0446848 1.0100281 1.0213152 0.99805266
00000000: a0f5 803f 9b0b 823f fed7 813f 6ec0 7c3f
00000010: 570c 7c3f ca6b 823f ba59 813f b997 803f
00000020: 3abc 823f 73df 7b3f 31d6 823f a14e 7f3f
00000030: 1b4b 7d3f 761e 823f ed67 7c3f e0d5 823f
00000040: d64a 803f 97f7 7a3f fc7e 753f fd76 7d3f
00000050: a011 753f 35c7 7c3f 2490 803f be0b 823f
00000060: 9da0 823f e97f 7f3f aa5e 813f fa02 843f
00000070: e819 803f 8949 7f3f 5e5a 813f ec29 833f
00000080: 11ce 7c3f 308d 763f 15fa 823f 026c 7f3f
00000090: 3d54 823f bf41 7b3f a984 813f 6a3a 853f
000000a0: 9cd7 713f 641c 803f 09c2 813f c1cc 853f
000000b0: 83f4 803f 8ec3 793f 0466 783f ba8a 7b3f
000000c0: a0ad 7d3f 430c 813f ba84 763f 60dc 7c3f
000000d0: 494e 863f 8629 773f 72d8 793f 41e2 7e3f
000000e0: a66c 763f a829 813f b1da 823f d017 813f
000000f0: 2bee 833f ead0 7d3f 3322 743f afe4 7b3f
00000100: a712 763f 0f9d 7d3f 4d0d 803f 829b 7d3f
00000110: f20f 723f 78c3 7f3f 679f 7b3f 7d76 803f
00000120: df00 813f 47d2 733f 1f4e 753f cf1d 7e3f
00000130: 176c 833f 693d 743f db87 7d3f 63ff 7e3f
00000140: dff2 753f d632 823f 0456 873f 43a6 793f
00000150: 6529 7f3f dedf 813f 3b00 7f3f d752 883f
00000160: a70c 813f a7b4 7a3f 731c 853f 1893 823f
00000170: 1aee 7f3f 92c6 833f a3d6 7e3f 0750 813f
00000180: 3bb8 853f 9a48 813f 75ba 823f 6180 7f3f

L1.4.bias f4 [100]
0.046306156 0.018163642 0.02672228 -0.0102543235 0.014632717 0.037514143 0.037701186 0.024926454
0.04691531 0.036611438 0.054541565 0.015908582 -0.04313772 0.041172378 -0.0061214715 0.055969045
-0.01725376 0.0005034155 0.020762 0.058582645 -0.0013335119 0.015691843 0.037433468 -0.026842162
-0.0008792619 0.04802735 0.026474886 0.0039995154 0.02127114 0.027711753 -0.02269885 0.04967446
0.024942761 0.0464901 0.028343728 0.03594298 0.039776977 0.010253777 0.036466055 0.013761491
-0.07611046 -0.010349273 0.0067637935 0.08450342 0.030438395 -0.013878422 0.007107901 -0.0032357085
0.0060702194 -0.018525884 0.03956894 -0.015483849 0.06314116 0.009833297 -0.030917205 0.0133952405
0.041429758 -0.033497848 0.052815072 0.018981552 0.06769646 0.048242062 0.012673822 -0.027882766
-0.0057150647 0.01878144 0.03780037 0.023230374 -0.036924865 0.027053315 0.027271101 0.010473013
0.05058392 -0.02181155 -0.018861905 -0.024621645 0.020040613 -0.0030770726 -0.006300952 0.036206983
0.043241795 0.023355525 0.04760532 0.0114841135 -0.010626128 0.02643212 0.026720643 0.01268082
-0.0040272106 0.008958722 0.05073763 0.017421799 -0.0020154575 -0.014008396 0.018605135 0.03599877
0.022152958 0.047592815 0.030701414 0.061390433
00000000: 86ab 3d3d ebcb 943c afe8 da3c c001 28bc
00000010: 10be 6f3c 6ea8 193d 8f6c 1a3d 9032 cc3c
00000020: 452a 403d e0f5 153d fa66 5f3d b752 823c
00000030: 2eb1 30bd 5ea4 283d a096 c8bb cc3f 653d
00000040: c257 8dbc a4f7 033a 1215 aa3c 5bf4 6f3d
00000050: 3cc9 aeba 2e8c 803c d653 193d 18e4 dbbc
00000060: 447e 66ba 54b8 443d dce1 d83c 5e0e 833b
00000070: d040 ae3c c203 e33c f0f2 b9bc 7277 4b3d
00000080: c354 cc3c 676c 3e3d 1b31 e83c f238 133d
00000090: 2fed 223d 75ff 273c 6e5d 153d e077 613c
000000a0: cddf 9bbd ff8f 29bc d0a2 dd3b 2110 ad3d
000000b0: f159 f93c 5262 63bc 65e9 e83b 2e0e 54bb
000000c0: b1e8 c63b 98c3 97bc 0a13 223d f8af 7dbc
000000d0: 2750 813d d61b 213c 1446 fdbc b677 5b3c
000000e0: 40b2 293d 0a35 09bd 9e54 583d 337f 9b3c
000000f0: 71a4 8a3d 7899 453d dda5 4f3c 666a e4bc
00000100: 7045 bbbb 89db 993c 90d4 1a3d a04d be3c
00000110: 873e 17bd ea9e dd3c a567 df3c 0097 2b3c
00000120: 1631 4f3d 23ae b2bc 4884 9abc 55b3 c9bc
00000130: 362c a43c b6a8 49bb 3778 cebb c64d 143d
00000140: 4f1e 313d 1654 bf3c ccfd 423d dd27 3c3c
00000150: 3619 2ebc 2c88 d83c 40e5 da3c 37c3 4f3c
00000160: b1f6 83bb 9bc7 123c 43d2 4f3d 29b8 8e3c
00000170: c415 04bb 7983 65bc cc69 983c 7273 133d
00000180: 1f7a b53c aff0 423d 8881 fb3c 8974 7b3d

L1.4.running_mean f4 [100]
0.0958872 -0.06590619 -0.1481075 -0.110017404 0.02361404 -0.3335467 -0.3114869 -0.15757635
-0.13294855 -0.27171952 0.22639878 0.03477783 -0.33075368 -0.14893349 -0.265833 -0.15657428
-0.047160283 0.11934279 0.25392857 0.22550315 -0.3289061 0.07291605 -0.03294887 0.28237957
-0.2630546 0.21219923 -0.3434756 -0.2509115 -0.047661714 0.09208514 -0.10250512 -0.23775311
-0.094364665 0.0082909735 -0.20477544 -0.3134219 -0.07842446 -0.5816624 -0.45023024 -0.083642334
0.014343088 -0.09161318 0.05382529 -0.11865524 0.08422886 0.27580246 -0.08734956 0.13852149
0.09868421 0.27864614 0.07583764 -0.21466973 -0.47121456 0.1904715 -0.04181971 -0.03631678
-0.0068332544 -0.23907106 0.026890902 -0.20267276 -0.12368148 -0.22654733 -0.08666091 -0.13122976
0.30855376 0.30079105 -0.41616094 -0.38664192 0.20903532 0.026158169 0.029933907 -0.09540922
0.08443074 0.07526283 0.22075692 -0.21240804 -0.29525173 0.16481702 -0.14094481 -0.14196065
0.1468797 0.21740925 -0.19538757 0.033510976 -0.13467838 -0.34315893 0.39832887 0.08837139
0.26596588 -0.021063672 -0.19475946 -0.09443876 -0.341056 0.04908809 -0.077697165 -0.29422945
-0.30863088 -0.10242197 0.18013744 0.39118475
00000000: 8260 c43d d3f9 86bd 7ea9 17be ce50 e1bd
00000010: 3b72 c13c a2c6 aabe 367b 9fbe b25b 21be
00000020: aa23 08be d21e 8bbe 15d5 673e 3373 0e3d
00000030: 8c58 a9be 0582 18be 431b 88be 0255 20be
00000040: 242b 41bd fe69 f43d ed02 823e 4cea 663e
00000050: 6166 a8be 0355 953d 65f5 06bd 0e94 903e
00000060: 18af 86be c14a 593e 09dc afbe 7977 80be
00000070: ee38 43bd 2297 bc3d 34ee d1bd 8d75 73be
00000080: 4342 c1bd ddd6 073c a7b0 51be d678 a0be
00000090: 019d a0bd d4e7 14bf 9484 e6be ac4c abbd
000000a0: 45ff 6a3c b19f bbbd e877 5c3d 8501 f3bd
000000b0: 2e80 ac3d fb35 8d3e 53e4 b2bd 94d8 0d3e
000000c0: f21a ca3d b5aa 8e3e c450 9b3d 62d2 5bbe
000000d0: 0943 f1be f60a 433e 254b 2bbd e7c0 14bd
000000e0: 7ee9 dfbb 0bcf 74be 4f4a dc3c 7389 4fbe
000000f0: b74c fdbd 06fc 67be 467b b1bd 1861 06be
00000100: c2fa 9d3e 4901 9a3e 0c13 d5be eef5 c5be
00000110: 5b0d 563e a849 d63c f437 f53c e965 c3bd
00000120: 06ea ac3d 6623 9a3d 1a0e 623e 7e81 59be
00000130: 3c2b 97be cbc5 283e d653 10be 225e 11be
00000140: a267 163e 88a0 5e3e ae13 48be ce42 093d
00000150: 21e9 09be 87b2 afbe c3f1 cb3e 0ffc b43d
00000160: ae2c 883e b98d acbc 066f 47be 1c69 c1bd
00000170: e49e aebe 9810 493d b11f 9fbd 3ea5 96be
00000180: de04 9ebe 9cc2 d1bd f375 383e 5e49 c83e

L1.4.running_var f4 [100]
0.2799775 0.26755527 0.21272372 0.1410025 0.2234419 0.20410307 0.16416577 0.3025576
0.19345947 0.1632242 0.2354093 0.16081089 0.17640822 0.19850174 0.2871084 0.25693938
0.13839379 0.24487305 0.22875108 0.18974741 0.17374153 0.18286796 0.30168113 0.30546162
0.1872142 0.18481268 0.23839189 0.27568176 0.32665783 0.19505537 0.20150584 0.19530946
0.205919 0.36351502 0.2304467 0.25007805 0.23372258 0.15373772 0.23234741 0.3142363
0.15190181 0.24864778 0.26238355 0.26068616 0.13708648 0.28122777 0.17732716 0.20791726
0.20175706 0.21084546 0.1917427 0.27936575 0.32836658 0.2877283 0.21671818 0.2596115
0.23165706 0.15970595 0.21333452 0.4308828 0.27576262 0.20416188 0.17271385 0.21918015
0.22483802 0.22133878 0.20799363 0.1843455 0.13788275 0.23960766 0.20430228 0.17326586
0.34275967 0.27099803 0.19464752 0.18098731 0.19273175 0.151442 0.3421036 0.18957064
0.15114021 0.23119761 0.24831925 0.1589574 0.17565784 0.24462092 0.28012383 0.25754982
0.18416129 0.23252556 0.14909704 0.2978375 0.2697326 0.19696252 0.22503743 0.31585363
0.18562983 0.19555882 0.27433833 0.22606863
00000000: 3659 8f3e 01fd 883e 3fd4 593e f662 103e
00000010: f4cd 643e 6500 513e 121b 283e d4e8 9a3e
00000020: 3d1a 463e 3f24 273e 230f 713e 9cab 243e
00000030: 5ba4 343e 0a44 4b3e dfff 923e 8f8d 833e
00000040: 1ab7 0d3e 00c0 7a3e b93d 6a3e 254d 423e
00000050: 4de9 313e bd41 3b3e f375 9a3e 7765 9c3e
00000060: 14b5 3f3e 893f 3d3e 011d 743e 2926 8d3e
00000070: b23f a73e 98bc 473e 8c57 4e3e 34ff 473e
00000080: 6edc 523e a41e ba3e 38fa 6b3e 3b0a 803e
00000090: f954 6f3e 6c6d 1d3e 7bec 6d3e 95e3 a03e
000000a0: 268c 1b3e 869d 7e3e 2357 863e a878 853e
000000b0: 6660 0c3e 16fd 8f3e 4095 353e 43e8 543e
000000c0: 6799 4e3e dfe7 573e 3358 443e 0709 8f3e
000000d0: aa1f a83e 2051 933e 5feb 5d3e cceb 843e
000000e0: 8237 6d3e f589 233e 5d74 5a3e ac9c dc3e
000000f0: c230 8d3e d00f 513e e6db 303e c370 603e
00000100: f03b 663e a2a6 623e 48fc 543e 11c5 3c3e
00000110: 2331 0d3e b65b 753e 9e34 513e 9b6c 313e
00000120: 327e af3e 41c0 8a3e ae51 473e bd54 393e
00000130: 795b 453e 9d13 1b3e 3428 af3e ce1e 423e
00000140: 80c4 1a3e 11bf 6c3e 6747 7e3e bbc5 223e
00000150: a6df 333e e87d 7a3e 646c 8f3e 92dd 833e
00000160: c794 3c3e 2e1b 6e3e e5ac 183e 287e 983e
00000170: 641a 8a3e 8bb0 493e 3670 663e 91b7 a13e
00000180: bf15 3e3e 9240 483e 1376 8c3e 897e 673e

L1.6.weight f4 [100, 100]
-0.03390557 0.087362 0.086355925 0.017825209 -0.045198366 0.037475105 -0.06302586 0.027191661
-0.058456767 0.049211897 0.0067983475 0.0028667746 0.02128511 0.013892963 -0.022028737 0.05110113
-0.1097329 0.10502608 0.039362803 -0.089028716 0.04101679 -0.07179699 0.0455158 0.048333492
0.034052204 -0.068096966 -0.11261493 0.02071667 0.02886756 0.027956186 -0.08304463 0.06952905
-0.11381808 -0.075396396 -0.02895005 -0.007138527 0.027358016 -0.038897615 0.054562073 -0.05021481
-0.12429207 -0.03769141 -0.06420111 -0.0290154 0.05912489 -0.10795141 -0.073558986 -0.007288575
-0.09873726 0.06438048 -0.04791991 -0.062942475 -0.12251588 -0.066748664 0.05099432 -0.0018131074
0.046320308 0.033202514 -0.046047624 0.08202514 0.07497632 -0.003825815 0.07253467 -0.11075098
0.044761714 -0.06496079 0.019176992 -0.031957302 0.071827054 -0.042331487 0.03487791 -0.05015015
-0.04826537 0.07001265 -0.0039897147 0.04068021 0.031068815 0.026506886 -0.034981195 -0.052244406
0.03047812 -0.03917402 0.12625079 0.0038138826 -0.045468133 0.031074053 -0.043068454 0.0267609
0.04775283 0.08494959 -0.0318237 -0.014485734 0.06276475 0.046667848 -0.03639556 0.100814365
-0.008180266 -0.031213075 0.0955086 -0.11265822 -0.052051254 0.045247026 0.07775688 0.048543934
0.11202263 0.08278493 0.08654223 0.07831635 -0.06060006 -0.094699286 0.005506719 -0.0077682207
-0.04764209 -0.07554798 -0.06604726 0.070618734 0.034563396 -0.002591408 -0.049672533 0.0784925
0.034975115 0.10359529 0.06270038 0.08387553 0.06395978 0.057452213 -0.12193309 0.11652312
-0.111402735 0.08396593 -0.061373334 -0.068335816 -0.056647535 -0.022607943 0.08588907 0.050892804
0.03602532 0.07824695 -0.1168627 -0.004633013 -0.036077518 -0.042260796 -0.035014555 -0.06883445
-0.109817736 0.08893861 -0.011745795 -0.07663375 0.07462762 0.0770405 -0.11134802 0.0062947115
-0.050622087 0.044167858 -0.045332033 0.097474866 0.013104303 -0.078295335 0.033286475 0.0137334
0.01140422 0.027738163 -0.00591576 -0.07388326 -0.042815518 0.063299336 0.015925344 -0.07300037
0.06253055 -0.08662549 -0.014815147 -0.028484005 -0.027969867 -0.08991099 -0.07635855 -0.058563955
-0.08434809 -8.043063e-05 0.09461892 -0.051225193 -0.0420959 -0.05539966 0.022689134 0.046547566
-0.099552765 0.012094247 0.10901283 -0.028031096 -0.033407718 0.03501923 -0.0712786 -0.05168668
0.056817625 0.014787322 0.05668731 -0.06459064 0.10639185 -0.029108332 -0.114905074 0.024427557
0.043744426 -0.013189133 0.032791134 -0.078702316 -0.014397111 0.0022571455 -0.078364715 -0.07198361
0.029385211 -0.09635659 -0.07879626 -0.037362896 0.014436347 -0.05686452 -0.009076616 0.08460971
-0.13396958 0.045391157 -0.08495576 -0.04660793 0.039071523 -0.039950095 -0.12807548 0.10289748
-0.030631095 -0.06818985 -0.0014922767 0.05057953 0.09043652 -0.019439682 -0.04974848 0.0026754022
-0.026199799 -0.005554822 0.055779725 -0.019139532 -0.06599773 -0.05257889 0.10662787 0.08373466
0.008631518 0.04762278 -0.06367166 0.14147878 -0.03423347 -0.10070131 0.05097811 -0.08375821
0.06692904 0.06547786 0.06069956 0.061095446 0.04480007 -0.119357035 -0.07244257 0.050775763
00000000: 91e0 0abd d9ea b23d 60db b03d 2c06 923c
00000010: ec21 39bd 7f7f 193d b413 81bd 0cc1 de3c
00000020: 5d70 6fbd 6a92 493d acc4 de3b 7fe0 3b3b
00000030: 1c5e ae3c 4f9f 633c 9c75 b4bc 6b4f 513d
00000040: a5bb e0bd ea17 d73d e43a 213d b054 b6bd
00000050: 3901 283d 4d0a 93bd c76e 3a3d 57f9 453d
00000060: 537a 0b3d 6c76 8bbd a8a2 e6bd 02b6 a93c
00000070: a97b ec3c 5f04 e53c 4e13 aabd 3f65 8e3d
00000080: 7419 e9bd 6d69 9abd a828 edbc 4eea e9bb
00000090: eb1d e03c 1b53 1fbd 7b7c 5f3d 0bae 4dbd
000000a0: d78c febd 4f62 1abd df7b 83bd b4b1 edbc
000000b0: f12c 723d a115 ddbd 18a6 96bd 00d5 eebb
000000c0: c336 cabd ead9 833d ab47 44bd fce7 80bd
000000d0: 9be9 fabd 86b3 88bd 6cdf 503d caa5 edba
000000e0: 5dba 3d3d 5cff 073d 6f9c 3cbd ccfc a73d
000000f0: 2f8d 993d 86ba 7abb 0f8d 943d 69d1 e2bd
00000100: 0f58 373d 2a0a 85bd 1119 9d3c a9e5 02bd
00000110: 101a 933d c863 2dbd 24dc 0e3d 3e6a 4dbd
00000120: e9b1 45bd cb62 8f3d 27bc 82bb 4ba0 263d
00000130: 0784 fe3c f824 d93c 7148 0fbd 3bfe 55bd
00000140: 40ad f93c f074 20bd e347 013e 55f2 793b
00000150: cb3c 3abd 038f fe3c 8c68 30bd ad39 db3c
00000160: 7998 433d 0dfa ad3d 9159 02bd 9255 6dbc
00000170: ce8a 803d c926 3f3d 8313 15bd c377 ce3d
00000180: 8606 06bc 90b2 ffbc 039a c33d 5ab9 e6bd
00000190: b233 55bd f254 393d 003f 9f3d 01d6 463d
000001a0: 1f6c e53d 258b a93d 0d3d b13d 5364 a03d
000001b0: c537 78bd b3f1 c1bd b571 b43b 8f8c febb
000001c0: 5a24 43bd e6b8 9abd c943 87bd 8ea0 903d
000001d0: 5992 0d3d 9dd4 29bb 6d75 4bbd adc0 a03d
000001e0: 1142 0f3d c429 d43d 0f69 803d efc6 ab3d
000001f0: 58fd 823d 0353 6b3d 0eb8 f9bd aca3 ee3d
00000200: 1e27 e4bd 54f6 ab3d 9b62 7bbd a6f3 8bbd
00000210: 3f07 68bd 4b34 b9bc 9ce6 af3d f974 503d
00000220: 498f 133d f03f a03d b655 efbd 88d0 97bb
00000230: 05c6 13bd a819 2dbd 6c6b 0fbd 13f9 8cbd
00000240: 1fe8 e0bd 7225 b63d 6f71 40bc 28f2 9cbd
00000250: 5ed6 983d 69c7 9d3d 6e0a e4bd de43 ce3b
00000260: 1b59 4fbd 5be9 343d 15ae 39bd e7a0 c73d
00000270: 6eb3 563c 4e59 a0bd 6657 083d 0e02 613c
00000280: c4d8 3a3c 253b e33c fed8 c1bb 1b50 97bd
00000290: 535f 2fbd 15a3 813d de75 823c 3881 95bd
000002a0: 0410 803d b468 b1bd 3bbb 72bc 4a57 e9bc
000002b0: 1021 e5bc 4123 b8bd df61 9cbd c2e0 6fbd
000002c0: b1be acbd deac a8b8 90c7 c13d 82d1 51bd
000002d0: c06c 2cbd c1ea 62bd 90de b93c a9a8 3e3d
000002e0: 52e2 cbbd f326 463c 1e42 df3d 78a1 e5bc
000002f0: 88d6 08bd 5370 0f3d 84fa 91bd 6ab5 53bd
00000300: 99b9 683d 8646 723c f430 683d 1948 84bd
00000310: f8e3 d93d 9974 eebc 5a53 ebbd 4d1c c83c
00000320: 5b2d 333d 3c17 58bc ff4f 063d ae2e a1bd
00000330: dce1 6bbc 9eec 133b ae7d a0bd 256c 93bd
00000340: 41b9 f03c 9b56 c5bd ef5f a1bd d609 19bd
00000350: 6e86 6c3c c5ea 68bd 16b6 14bc db47 ad3d
00000360: 522f 09be 14ec 393d 49fd adbd f5e7 3ebd
00000370: 7609 203d b6a2 23bd 3826 03be eabb d23d
00000380: 10ee fabc 1fa7 8bbd 7f98 c3ba 7b2c 4f3d
00000390: c836 b93d f83f 9fbc 10c5 4bbd cd55 2f3b
000003a0: f6a0 d6bc 3905 b6bb 4879 643d 82ca 9cbc
000003b0: d129 87bd f65c 57bd b65f da3d 147d ab3d
000003c0: 366b 0d3c 1b10 433d 4a66 82bd d0df 103e
000003d0: 6538 0cbd 7d3c cebd 6cce 503d 6d89 abbd
000003e0: 1812 893d 4219 863d 1aa0 783d 383f 7a3d
000003f0: 4780 373d 7671 f4bd c55c 94bd 3ffa 4f3d

L1.6.bias f4 [100]
-0.09202826 -0.032953486 0.015503535 0.008907075 0.07609901 -0.05742983 -0.04731925 -0.066318415
0.069341905 -0.059580676 -0.055870935 -0.074653454 -0.012243731 0.03164119 0.051139332 0.08101181
-0.027322328 -0.07015045 -0.033696122 -0.016273778 -0.02050234 -0.00031576934 0.00203708 -0.042168852
-0.07572687 -0.06391953 0.075263314 -0.053280484 0.029168025 0.09510659 -0.046485174 0.05904316
-0.043706205 -0.04803789 0.022298109 -0.06266601 0.0036407718 0.09804508 -0.024303416 0.045654044
-0.0609961 0.07991715 0.05224594 -0.045861088 0.010031632 0.04188561 0.022878315 0.05383276
-0.014782485 0.03333341 -0.08451622 -0.05042003 -0.07150185 0.08817807 -0.08023534 0.009839604
-0.045143493 0.06907911 -0.000656762 -0.094591014 0.0006591144 0.068801425 -0.04856541 -0.035087273
-0.082848854 -0.035582583 0.034082424 -0.01925096 -0.04501014 -0.039410867 0.013207561 0.07853589
-0.07775327 -0.018947618 0.0021333464 0.07550968 -0.053326733 0.070993625 0.09840129 -0.048403323
-0.03764489 -0.029363658 -0.07904813 0.022509845 0.0055841417 -0.06468573 -0.06812798 0.013050824
-0.034885336 0.028476702 -0.09494974 -0.035088215 -0.07507567 -0.024950627 0.09875524 -0.024739496
0.016824694 -0.010166566 0.04853627 -0.03785696
00000000: 5079 bcbd 3cfa 06bd 8a02 7e3c fbee 113c
00000010: ccd9 9b3d 8b3b 6bbd d4d1 41bd f3d1 87bd
00000020: 2103 8e3d de0a 74bd ecd8 64bd e9e3 98bd
00000030: ee99 48bc 319a 013d 7a77 513d 85e9 a53d
00000040: 13d3 dfbc 0aab 8fbd f204 0abd 9650 85bc
00000050: 86f4 a7bc d88d a5b9 8880 053b 3fb9 2cbd
00000060: b016 9bbd 3ee8 82bd a723 9a3d a33c 5abd
00000070: c8f1 ee3c 3ec7 c23d 3d67 3ebd 3ed7 713d
00000080: 4705 33bd 61c3 44bd 86aa b63c 0957 80bd
00000090: 049a 6e3b dccb c83d f517 c7bc bcff 3a3d
000000a0: 0cd7 79bd 9aab a33d d7ff 553d d6d8 3bbd
000000b0: b75b 243c 3f90 2b3d 4e6b bb3c bd7f 5c3d
000000c0: 3c32 72bc 9d88 083d d716 adbd 3c85 4ebd
000000d0: 906f 92bd b496 b43d 6d52 a4bd 4a36 213c
000000e0: 62e8 38bd 5979 8d3d 8d2a 2cba efb8 c1bd
000000f0: 6bc8 2c3a c3e7 8c3d 86ec 46bd acb7 0fbd
00000100: a9ac a9bd 0bbf 11bd 039a 0b3d 30b4 9dbc
00000110: 8d5c 38bd 4a6d 21bd 8764 583c 6dd7 a03d
00000120: 1b3d 9fbd 0938 9bbc 9dcf 0b3b d2a4 9a3d
00000130: 226d 5abd 1b65 913d 9e86 c93d 9042 46bd
00000140: 8731 1abd 0e8c f0bc fce3 a1bd 9166 b83c
00000150: 2dfb b63b f479 84bd af86 8bbd 20d3 553c
00000160: ede3 0ebd f947 e93c 0275 c2bd a9b8 0fbd
00000170: 46c1 99bd 4265 ccbc 3040 ca3d 7caa cabc
00000180: f1d3 893c ab91 26bc f8cd 463d e60f 1bbd

L1.7.weight f4 [100]
1.0120246 1.0360584 1.0020097 1.0074153 0.9937118 1.0298445 1.0375133 1.0219083
0.9587449 0.97309935 0.9561853 0.9586565 0.9981723 1.0622416 0.9880377 0.9877735
0.9971323 0.9874515 1.0134916 0.98315024 0.9730955 0.97857714 1.0002424 0.98519206
0.98748285 0.9960367 1.0333108 1.0012578 0.96885914 1.0146794 0.98939717 0.995083
1.0022417 0.94872975 0.99716574 0.9982893 1.0018456 1.0129569 1.0115337 1.0101682
0.98139983 0.98406947 0.98486066 1.0277423 0.9876186 1.0237345 0.9943279 1.0027486
0.98690903 0.9983729 1.0519391 1.004792 1.0364925 0.9980912 1.0034262 0.9546177
0.9957504 0.9781004 1.0135689 1.0387335 0.9935526 0.9951318 0.9557438 1.0056313
0.98324156 0.9974837 1.0061865 0.96681494 1.0586941 0.97141135 1.0373766 0.9944145
1.0121509 0.9941164 1.045703 0.97568125 0.9896941 0.9567172 1.0010076 1.0164161
1.0213332 1.0115091 1.0227402 0.9858268 0.9790287 1.0180063 1.0092676 0.9908254
1.0238687 0.9925928 1.0228745 0.9756321 0.9937072 1.0261662 0.98232615 1.0060735
0.9987831 0.9869394 1.0204725 0.9719066
00000000: 068a 813f 909d 843f db41 803f fcf2 803f
00000010: e663 7e3f f2d1 833f 3ccd 843f e4cd 823f
00000020: 4e70 753f 0a1d 793f 8fc8 743f 836a 753f
00000030: 3888 7f3f 88f7 873f 0af0 7c3f b9de 7c3f
00000040: 1044 7f3f 9fc9 7c3f 18ba 813f bcaf 7b3f
00000050: c91c 793f 0884 7a3f f107 803f 8c35 7c3f
00000060: adcb 7c3f 43fc 7e3f 8743 843f 3729 803f
00000070: 2707 783f 04e1 813f 2249 7d3f c2bd 7e3f
00000080: 7549 803f f4df 723f 4146 7f3f e38f 7f3f
00000090: 7a3c 803f 92a8 813f f079 813f 314d 813f
000000a0: 053d 7b3f faeb 7b3f d41f 7c3f 0f8d 833f
000000b0: 93d4 7c3f bb09 833f 468c 7e3f 115a 803f
000000c0: 12a6 7c3f 5e95 7f3f f1a5 863f 069d 803f
000000d0: c9ab 843f e882 7f3f 4570 803f d361 743f
000000e0: 80e9 7e3f ca64 7a3f a0bc 813f 38f5 843f
000000f0: 7759 7e3f f5c0 7e3f a0ab 743f 87b8 803f
00000100: b8b5 7b3f 175b 7f3f b8ca 803f 2f81 773f
00000110: 4a83 873f 6aae 783f c2c8 843f f391 7e3f
00000120: 298e 813f 6a7e 7e3f 99d9 853f 3fc6 793f
00000130: 985c 7d3f 6beb 743f 0421 803f ec19 823f
00000140: 0cbb 823f 2179 813f 27e9 823f 255f 7c3f
00000150: a0a1 7a3f 084e 823f ae2f 813f bca6 7d3f
00000160: 210e 833f 901a 7e3f 8ded 823f 06c3 793f
00000170: 9863 7e3f 6a59 833f ba79 7b3f 04c7 803f
00000180: 40b0 7f3f 0fa8 7c3f d89e 823f dfce 783f
